…
	 architecture         : MOBILENET_V2-GAUSSIAN_POOL-4222121
	 im_size              : 128
	 relu_threshold       : 4.0
	 learning_rate        : 0.01
	 pretrained_backbone  : 
	 pretrained_ann       : 
	 weight_decay         : 0.0
	 test_only            : False
	 epochs               : 300
	 lr_interval          : [180, 240, 270]
	 lr_reduce            : 5
	 optimizer            : SGD
	 dropout              : 0.2
	 kernel_size          : 3
	 dont_save            : False
	 visualize            : False
	 devices              : 0
 DataParallel(
  (module): Network(
    (net): MobileNetV2(
      (conv1): Sequential(
        (0): Conv2d(3, 32, kernel_size=(3, 3), stride=(2, 2), padding=(1, 1), bias=False)
        (1): BatchNorm2d(32, eps=1e-05, momentum=0.1, affine=True, track_running_stats=True)
        (2): ReLU6(inplace=True)
      )
      (features): Sequential(
        (0): InvertedResidual(
          (pooling): GaussianPooling2d(
            kernel_size=4, stride=4, padding=0
            (ToHidden): Sequential(
              (0): AdaptiveAvgPool2d(output_size=(1, 1))
              (1): Conv2d(16, 8, kernel_size=(1, 1), stride=(1, 1))
              (2): BatchNorm2d(8, eps=1e-05, momentum=0.1, affine=True, track_running_stats=True)
              (3): ReLU()
            )
            (ToMean): Sequential(
              (0): Conv2d(8, 16, kernel_size=(1, 1), stride=(1, 1))
              (1): BatchNorm2d(16, eps=1e-05, momentum=0.1, affine=True, track_running_stats=True)
            )
            (ToSigma): Sequential(
              (0): Conv2d(8, 16, kernel_size=(1, 1), stride=(1, 1))
              (1): BatchNorm2d(16, eps=1e-05, momentum=0.1, affine=True, track_running_stats=True)
              (2): Sigmoid()
            )
            (activation): Softplus(beta=1, threshold=20)
          )
          (conv): Sequential(
            (0): Conv2d(32, 32, kernel_size=(3, 3), stride=(1, 1), padding=(1, 1), groups=32, bias=False)
            (1): BatchNorm2d(32, eps=1e-05, momentum=0.1, affine=True, track_running_stats=True)
            (2): ReLU6(inplace=True)
            (3): Conv2d(32, 16, kernel_size=(1, 1), stride=(1, 1), bias=False)
            (4): BatchNorm2d(16, eps=1e-05, momentum=0.1, affine=True, track_running_stats=True)
          )
        )
        (1): InvertedResidual(
          (pooling): GaussianPooling2d(
            kernel_size=2, stride=2, padding=0
            (ToHidden): Sequential(
              (0): AdaptiveAvgPool2d(output_size=(1, 1))
              (1): Conv2d(24, 12, kernel_size=(1, 1), stride=(1, 1))
              (2): BatchNorm2d(12, eps=1e-05, momentum=0.1, affine=True, track_running_stats=True)
              (3): ReLU()
            )
            (ToMean): Sequential(
              (0): Conv2d(12, 24, kernel_size=(1, 1), stride=(1, 1))
              (1): BatchNorm2d(24, eps=1e-05, momentum=0.1, affine=True, track_running_stats=True)
            )
            (ToSigma): Sequential(
              (0): Conv2d(12, 24, kernel_size=(1, 1), stride=(1, 1))
              (1): BatchNorm2d(24, eps=1e-05, momentum=0.1, affine=True, track_running_stats=True)
              (2): Sigmoid()
            )
            (activation): Softplus(beta=1, threshold=20)
          )
          (conv): Sequential(
            (0): Conv2d(16, 96, kernel_size=(1, 1), stride=(1, 1), bias=False)
            (1): BatchNorm2d(96, eps=1e-05, momentum=0.1, affine=True, track_running_stats=True)
            (2): ReLU6(inplace=True)
            (3): Conv2d(96, 96, kernel_size=(3, 3), stride=(1, 1), padding=(1, 1), groups=96, bias=False)
            (4): BatchNorm2d(96, eps=1e-05, momentum=0.1, affine=True, track_running_stats=True)
            (5): ReLU6(inplace=True)
            (6): Conv2d(96, 24, kernel_size=(1, 1), stride=(1, 1), bias=False)
            (7): BatchNorm2d(24, eps=1e-05, momentum=0.1, affine=True, track_running_stats=True)
          )
        )
        (2): InvertedResidual(
          (conv): Sequential(
            (0): Conv2d(24, 144, kernel_size=(1, 1), stride=(1, 1), bias=False)
            (1): BatchNorm2d(144, eps=1e-05, momentum=0.1, affine=True, track_running_stats=True)
            (2): ReLU6(inplace=True)
            (3): Conv2d(144, 144, kernel_size=(3, 3), stride=(1, 1), padding=(1, 1), groups=144, bias=False)
            (4): BatchNorm2d(144, eps=1e-05, momentum=0.1, affine=True, track_running_stats=True)
            (5): ReLU6(inplace=True)
            (6): Conv2d(144, 24, kernel_size=(1, 1), stride=(1, 1), bias=False)
            (7): BatchNorm2d(24, eps=1e-05, momentum=0.1, affine=True, track_running_stats=True)
          )
        )
        (3): InvertedResidual(
          (pooling): GaussianPooling2d(
            kernel_size=2, stride=2, padding=0
            (ToHidden): Sequential(
              (0): AdaptiveAvgPool2d(output_size=(1, 1))
              (1): Conv2d(32, 16, kernel_size=(1, 1), stride=(1, 1))
              (2): BatchNorm2d(16, eps=1e-05, momentum=0.1, affine=True, track_running_stats=True)
              (3): ReLU()
            )
            (ToMean): Sequential(
              (0): Conv2d(16, 32, kernel_size=(1, 1), stride=(1, 1))
              (1): BatchNorm2d(32, eps=1e-05, momentum=0.1, affine=True, track_running_stats=True)
            )
            (ToSigma): Sequential(
              (0): Conv2d(16, 32, kernel_size=(1, 1), stride=(1, 1))
              (1): BatchNorm2d(32, eps=1e-05, momentum=0.1, affine=True, track_running_stats=True)
              (2): Sigmoid()
            )
            (activation): Softplus(beta=1, threshold=20)
          )
          (conv): Sequential(
            (0): Conv2d(24, 144, kernel_size=(1, 1), stride=(1, 1), bias=False)
            (1): BatchNorm2d(144, eps=1e-05, momentum=0.1, affine=True, track_running_stats=True)
            (2): ReLU6(inplace=True)
            (3): Conv2d(144, 144, kernel_size=(3, 3), stride=(1, 1), padding=(1, 1), groups=144, bias=False)
            (4): BatchNorm2d(144, eps=1e-05, momentum=0.1, affine=True, track_running_stats=True)
            (5): ReLU6(inplace=True)
            (6): Conv2d(144, 32, kernel_size=(1, 1), stride=(1, 1), bias=False)
            (7): BatchNorm2d(32, eps=1e-05, momentum=0.1, affine=True, track_running_stats=True)
          )
        )
        (4): InvertedResidual(
          (conv): Sequential(
            (0): Conv2d(32, 192, kernel_size=(1, 1), stride=(1, 1), bias=False)
            (1): BatchNorm2d(192, eps=1e-05, momentum=0.1, affine=True, track_running_stats=True)
            (2): ReLU6(inplace=True)
            (3): Conv2d(192, 192, kernel_size=(3, 3), stride=(1, 1), padding=(1, 1), groups=192, bias=False)
            (4): BatchNorm2d(192, eps=1e-05, momentum=0.1, affine=True, track_running_stats=True)
            (5): ReLU6(inplace=True)
            (6): Conv2d(192, 32, kernel_size=(1, 1), stride=(1, 1), bias=False)
            (7): BatchNorm2d(32, eps=1e-05, momentum=0.1, affine=True, track_running_stats=True)
          )
        )
        (5): InvertedResidual(
          (conv): Sequential(
            (0): Conv2d(32, 192, kernel_size=(1, 1), stride=(1, 1), bias=False)
            (1): BatchNorm2d(192, eps=1e-05, momentum=0.1, affine=True, track_running_stats=True)
            (2): ReLU6(inplace=True)
            (3): Conv2d(192, 192, kernel_size=(3, 3), stride=(1, 1), padding=(1, 1), groups=192, bias=False)
            (4): BatchNorm2d(192, eps=1e-05, momentum=0.1, affine=True, track_running_stats=True)
            (5): ReLU6(inplace=True)
            (6): Conv2d(192, 32, kernel_size=(1, 1), stride=(1, 1), bias=False)
            (7): BatchNorm2d(32, eps=1e-05, momentum=0.1, affine=True, track_running_stats=True)
          )
        )
        (6): InvertedResidual(
          (pooling): GaussianPooling2d(
            kernel_size=2, stride=2, padding=0
            (ToHidden): Sequential(
              (0): AdaptiveAvgPool2d(output_size=(1, 1))
              (1): Conv2d(64, 32, kernel_size=(1, 1), stride=(1, 1))
              (2): BatchNorm2d(32, eps=1e-05, momentum=0.1, affine=True, track_running_stats=True)
              (3): ReLU()
            )
            (ToMean): Sequential(
              (0): Conv2d(32, 64, kernel_size=(1, 1), stride=(1, 1))
              (1): BatchNorm2d(64, eps=1e-05, momentum=0.1, affine=True, track_running_stats=True)
            )
            (ToSigma): Sequential(
              (0): Conv2d(32, 64, kernel_size=(1, 1), stride=(1, 1))
              (1): BatchNorm2d(64, eps=1e-05, momentum=0.1, affine=True, track_running_stats=True)
              (2): Sigmoid()
            )
            (activation): Softplus(beta=1, threshold=20)
          )
          (conv): Sequential(
            (0): Conv2d(32, 192, kernel_size=(1, 1), stride=(1, 1), bias=False)
            (1): BatchNorm2d(192, eps=1e-05, momentum=0.1, affine=True, track_running_stats=True)
            (2): ReLU6(inplace=True)
            (3): Conv2d(192, 192, kernel_size=(3, 3), stride=(1, 1), padding=(1, 1), groups=192, bias=False)
            (4): BatchNorm2d(192, eps=1e-05, momentum=0.1, affine=True, track_running_stats=True)
            (5): ReLU6(inplace=True)
            (6): Conv2d(192, 64, kernel_size=(1, 1), stride=(1, 1), bias=False)
            (7): BatchNorm2d(64, eps=1e-05, momentum=0.1, affine=True, track_running_stats=True)
          )
        )
        (7): InvertedResidual(
          (conv): Sequential(
            (0): Conv2d(64, 384, kernel_size=(1, 1), stride=(1, 1), bias=False)
            (1): BatchNorm2d(384, eps=1e-05, momentum=0.1, affine=True, track_running_stats=True)
            (2): ReLU6(inplace=True)
            (3): Conv2d(384, 384, kernel_size=(3, 3), stride=(1, 1), padding=(1, 1), groups=384, bias=False)
            (4): BatchNorm2d(384, eps=1e-05, momentum=0.1, affine=True, track_running_stats=True)
            (5): ReLU6(inplace=True)
            (6): Conv2d(384, 64, kernel_size=(1, 1), stride=(1, 1), bias=False)
            (7): BatchNorm2d(64, eps=1e-05, momentum=0.1, affine=True, track_running_stats=True)
          )
        )
        (8): InvertedResidual(
          (conv): Sequential(
            (0): Conv2d(64, 384, kernel_size=(1, 1), stride=(1, 1), bias=False)
            (1): BatchNorm2d(384, eps=1e-05, momentum=0.1, affine=True, track_running_stats=True)
            (2): ReLU6(inplace=True)
            (3): Conv2d(384, 384, kernel_size=(3, 3), stride=(1, 1), padding=(1, 1), groups=384, bias=False)
            (4): BatchNorm2d(384, eps=1e-05, momentum=0.1, affine=True, track_running_stats=True)
            (5): ReLU6(inplace=True)
            (6): Conv2d(384, 64, kernel_size=(1, 1), stride=(1, 1), bias=False)
            (7): BatchNorm2d(64, eps=1e-05, momentum=0.1, affine=True, track_running_stats=True)
          )
        )
        (9): InvertedResidual(
          (conv): Sequential(
            (0): Conv2d(64, 384, kernel_size=(1, 1), stride=(1, 1), bias=False)
            (1): BatchNorm2d(384, eps=1e-05, momentum=0.1, affine=True, track_running_stats=True)
            (2): ReLU6(inplace=True)
            (3): Conv2d(384, 384, kernel_size=(3, 3), stride=(1, 1), padding=(1, 1), groups=384, bias=False)
            (4): BatchNorm2d(384, eps=1e-05, momentum=0.1, affine=True, track_running_stats=True)
            (5): ReLU6(inplace=True)
            (6): Conv2d(384, 64, kernel_size=(1, 1), stride=(1, 1), bias=False)
            (7): BatchNorm2d(64, eps=1e-05, momentum=0.1, affine=True, track_running_stats=True)
          )
        )
        (10): InvertedResidual(
          (conv): Sequential(
            (0): Conv2d(64, 384, kernel_size=(1, 1), stride=(1, 1), bias=False)
            (1): BatchNorm2d(384, eps=1e-05, momentum=0.1, affine=True, track_running_stats=True)
            (2): ReLU6(inplace=True)
            (3): Conv2d(384, 384, kernel_size=(3, 3), stride=(1, 1), padding=(1, 1), groups=384, bias=False)
            (4): BatchNorm2d(384, eps=1e-05, momentum=0.1, affine=True, track_running_stats=True)
            (5): ReLU6(inplace=True)
            (6): Conv2d(384, 96, kernel_size=(1, 1), stride=(1, 1), bias=False)
            (7): BatchNorm2d(96, eps=1e-05, momentum=0.1, affine=True, track_running_stats=True)
          )
        )
        (11): InvertedResidual(
          (conv): Sequential(
            (0): Conv2d(96, 576, kernel_size=(1, 1), stride=(1, 1), bias=False)
            (1): BatchNorm2d(576, eps=1e-05, momentum=0.1, affine=True, track_running_stats=True)
            (2): ReLU6(inplace=True)
            (3): Conv2d(576, 576, kernel_size=(3, 3), stride=(1, 1), padding=(1, 1), groups=576, bias=False)
            (4): BatchNorm2d(576, eps=1e-05, momentum=0.1, affine=True, track_running_stats=True)
            (5): ReLU6(inplace=True)
            (6): Conv2d(576, 96, kernel_size=(1, 1), stride=(1, 1), bias=False)
            (7): BatchNorm2d(96, eps=1e-05, momentum=0.1, affine=True, track_running_stats=True)
          )
        )
        (12): InvertedResidual(
          (conv): Sequential(
            (0): Conv2d(96, 576, kernel_size=(1, 1), stride=(1, 1), bias=False)
            (1): BatchNorm2d(576, eps=1e-05, momentum=0.1, affine=True, track_running_stats=True)
            (2): ReLU6(inplace=True)
            (3): Conv2d(576, 576, kernel_size=(3, 3), stride=(1, 1), padding=(1, 1), groups=576, bias=False)
            (4): BatchNorm2d(576, eps=1e-05, momentum=0.1, affine=True, track_running_stats=True)
            (5): ReLU6(inplace=True)
            (6): Conv2d(576, 96, kernel_size=(1, 1), stride=(1, 1), bias=False)
            (7): BatchNorm2d(96, eps=1e-05, momentum=0.1, affine=True, track_running_stats=True)
          )
        )
        (13): InvertedResidual(
          (pooling): GaussianPooling2d(
            kernel_size=2, stride=2, padding=0
            (ToHidden): Sequential(
              (0): AdaptiveAvgPool2d(output_size=(1, 1))
              (1): Conv2d(160, 80, kernel_size=(1, 1), stride=(1, 1))
              (2): BatchNorm2d(80, eps=1e-05, momentum=0.1, affine=True, track_running_stats=True)
              (3): ReLU()
            )
            (ToMean): Sequential(
              (0): Conv2d(80, 160, kernel_size=(1, 1), stride=(1, 1))
              (1): BatchNorm2d(160, eps=1e-05, momentum=0.1, affine=True, track_running_stats=True)
            )
            (ToSigma): Sequential(
              (0): Conv2d(80, 160, kernel_size=(1, 1), stride=(1, 1))
              (1): BatchNorm2d(160, eps=1e-05, momentum=0.1, affine=True, track_running_stats=True)
              (2): Sigmoid()
            )
            (activation): Softplus(beta=1, threshold=20)
          )
          (conv): Sequential(
            (0): Conv2d(96, 576, kernel_size=(1, 1), stride=(1, 1), bias=False)
            (1): BatchNorm2d(576, eps=1e-05, momentum=0.1, affine=True, track_running_stats=True)
            (2): ReLU6(inplace=True)
            (3): Conv2d(576, 576, kernel_size=(3, 3), stride=(1, 1), padding=(1, 1), groups=576, bias=False)
            (4): BatchNorm2d(576, eps=1e-05, momentum=0.1, affine=True, track_running_stats=True)
            (5): ReLU6(inplace=True)
            (6): Conv2d(576, 160, kernel_size=(1, 1), stride=(1, 1), bias=False)
            (7): BatchNorm2d(160, eps=1e-05, momentum=0.1, affine=True, track_running_stats=True)
          )
        )
        (14): InvertedResidual(
          (conv): Sequential(
            (0): Conv2d(160, 960, kernel_size=(1, 1), stride=(1, 1), bias=False)
            (1): BatchNorm2d(960, eps=1e-05, momentum=0.1, affine=True, track_running_stats=True)
            (2): ReLU6(inplace=True)
            (3): Conv2d(960, 960, kernel_size=(3, 3), stride=(1, 1), padding=(1, 1), groups=960, bias=False)
            (4): BatchNorm2d(960, eps=1e-05, momentum=0.1, affine=True, track_running_stats=True)
            (5): ReLU6(inplace=True)
            (6): Conv2d(960, 160, kernel_size=(1, 1), stride=(1, 1), bias=False)
            (7): BatchNorm2d(160, eps=1e-05, momentum=0.1, affine=True, track_running_stats=True)
          )
        )
        (15): InvertedResidual(
          (conv): Sequential(
            (0): Conv2d(160, 960, kernel_size=(1, 1), stride=(1, 1), bias=False)
            (1): BatchNorm2d(960, eps=1e-05, momentum=0.1, affine=True, track_running_stats=True)
            (2): ReLU6(inplace=True)
            (3): Conv2d(960, 960, kernel_size=(3, 3), stride=(1, 1), padding=(1, 1), groups=960, bias=False)
            (4): BatchNorm2d(960, eps=1e-05, momentum=0.1, affine=True, track_running_stats=True)
            (5): ReLU6(inplace=True)
            (6): Conv2d(960, 160, kernel_size=(1, 1), stride=(1, 1), bias=False)
            (7): BatchNorm2d(160, eps=1e-05, momentum=0.1, affine=True, track_running_stats=True)
          )
        )
        (16): InvertedResidual(
          (conv): Sequential(
            (0): Conv2d(160, 960, kernel_size=(1, 1), stride=(1, 1), bias=False)
            (1): BatchNorm2d(960, eps=1e-05, momentum=0.1, affine=True, track_running_stats=True)
            (2): ReLU6(inplace=True)
            (3): Conv2d(960, 960, kernel_size=(3, 3), stride=(1, 1), padding=(1, 1), groups=960, bias=False)
            (4): BatchNorm2d(960, eps=1e-05, momentum=0.1, affine=True, track_running_stats=True)
            (5): ReLU6(inplace=True)
            (6): Conv2d(960, 320, kernel_size=(1, 1), stride=(1, 1), bias=False)
            (7): BatchNorm2d(320, eps=1e-05, momentum=0.1, affine=True, track_running_stats=True)
          )
        )
      )
      (conv2): Sequential(
        (0): Conv2d(320, 1280, kernel_size=(1, 1), stride=(1, 1), bias=False)
        (1): BatchNorm2d(1280, eps=1e-05, momentum=0.1, affine=True, track_running_stats=True)
        (2): ReLU6(inplace=True)
      )
      (avgpool): AdaptiveAvgPool2d(output_size=(1, 1))
      (classifier): Linear(in_features=1280, out_features=10, bias=True)
    )
  )
)
 SGD (
Parameter Group 0
    dampening: 0
    lr: 0.01
    momentum: 0.9
    nesterov: False
    weight_decay: 0.0
)
 Epoch: 1, lr: 1.0e-02, train_loss: 3.3065, train_acc: 0.1282 test_loss: 2.5102, test_acc: 0.1103, best: 0.1103, time: 0:00:57
 Epoch: 2, lr: 1.0e-02, train_loss: 2.4573, train_acc: 0.1382 test_loss: 2.2662, test_acc: 0.1547, best: 0.1547, time: 0:00:57
…
